codes/python_code/ann_model.tflite (tflite, 2220 bytes, 3 tensors)

arith.constant f4 [1, 32]
0	0x3e8c40f0	0.27393293
1	0x3f5c5ec6	0.8608211
2	0xbf4af41d	-0.7927874
3	0x3e89c5bb	0.2690867
4	0x3f8972de	1.073818
5	0x3e1f9880	0.15585518
6	0xbf60c5df	-0.8780193
7	0x3e0c6fad	0.13714476
8	0xbf6afdaf	-0.9179334
9	0x3f8b42e9	1.0879794
10	0xbf55d355	-0.8352559
11	0x3e593f1f	0.21215485
12	0x3ddbb504	0.10727885
13	0x3f552b05	0.8326877
14	0x3f820d2f	1.0160273
15	0x3db960c5	0.090516604
16	0x3f414bcf	0.755063
17	0x3d35efca	0.044418134
18	0xbe9de55a	-0.30839044
19	0x3f77a8ff	0.9674224
20	0x3f2a8969	0.6661592
21	0xbf5f2c28	-0.8717675
22	0xbf8a661a	-1.0812409
23	0x3df0fa6a	0.11766513
24	0x3f692831	0.9107695
25	0xbf7e123a	-0.9924656
26	0xbf4ec085	-0.8076251
27	0xbf89cded	-1.0765969
28	0x3f63e42a	0.89020026
29	0xbf78bbc4	-0.9716151
30	0xbf7388ac	-0.9513042
31	0x3f113958	0.56728125

sequential_1/batch_normalization_1/batchnorm/mul_1 f4 [32, 1]
0	0xbec6e358	-0.38845325
1	0x40bee600	5.965576
2	0xc1239e04	-10.226078
3	0xbe87367f	-0.26408765
4	0x40b33451	5.6001363
5	0xbd94c62a	-0.07264359
6	0xc117282c	-9.447308
7	0xbe53daa1	-0.20688869
8	0xc11a1af9	-9.631585
9	0x40b6fbbf	5.7182307
10	0xc1186a59	-9.525964
11	0xbe8d1916	-0.27558202
12	0xbedbf5c9	-0.42960957
13	0x40c4acf5	6.146113
14	0x40a4d076	5.150447
15	0xbeeeaa3a	-0.46614248
16	0x40bcd97c	5.9015484
17	0xbe730974	-0.23734075
18	0xbc31bf35	-0.01084881
19	0x40b53191	5.6623006
20	0x40e146d9	7.0398984
21	0xc11f0813	-9.939471
22	0xc104e66c	-8.306255
23	0xbe934742	-0.28765303
24	0x40b6344b	5.6938834
25	0xc0fe5c1e	-7.948745
26	0xc12c507e	-10.769651
27	0xc10cedc8	-8.808052
28	0x40c25668	6.0730476
29	0xc108e321	-8.555451
30	0xc11f41d7	-9.953574
31	0x40871edf	4.2225184

sequential_1/activation_1/Relu;sequential_1/batch_normalization_1/batchnorm/add_1 f4 [32]
0	0xbd207450	-0.039173424
1	0xbff18c68	-1.8870974
2	0x40317798	2.7729244
3	0xbd435c4e	-0.04769545
4	0xbfd734b6	-1.6812961
5	0xbd1204e9	-0.035649214
6	0x4015418c	2.3321257
7	0xbe647a37	-0.22312246
8	0x402552d2	2.58318
9	0xbfccff5d	-1.6015431
10	0x4016a373	2.3537261
11	0xbd5b0fff	-0.053482052
12	0xbd812d00	-0.06307411
13	0xbfe74471	-1.8067762
14	0xbfd48768	-1.6603823
15	0xbd2e62a5	-0.042574544
16	0xbff67ea7	-1.9257401
17	0xbc38edc0	-0.011287153
18	0xbda0aef5	-0.078458704
19	0xbfd9ddaa	-1.7020772
20	0xc0053b1f	-2.0817335
21	0x4019f0a3	2.4053123
22	0x400b6baa	2.1784463
23	0xbce414ee	-0.027842011
24	0xbfec6b48	-1.847024
25	0x40001ee2	2.001885
26	0x4020fd36	2.5154548
27	0x40097a98	2.1481075
28	0xbfeaead2	-1.8352911
29	0x400c6a74	2.1939974
30	0x402dab4f	2.7135808
31	0xbf832877	-1.0246724
